data set path:/media/debangliu/datapart_ssd/librimix_nonoise/jsonfiles_for_ubuntu/min/train-100'
'/media/debangliu/datapart_ssd/librimix_nonoise/jsonfiles_for_ubuntu/min/dev

AFRCNN(
  (encoder): Conv1d(1, 512, kernel_size=(21,), stride=(10,), padding=(10,), bias=False)
  (ln): GlobLN()
  (bottleneck): Conv1d(512, 512, kernel_size=(1,), stride=(1,))
  (sm): Recurrent(
    (blocks): Blocks(
      (proj_1x1): ConvNormAct(
        (conv): Conv1d(512, 512, kernel_size=(1,), stride=(1,))
        (norm): GlobLN()
        (act): PReLU(num_parameters=1)
      )
      (spp_dw): ModuleList(
        (0): DilatedConvNorm(
          (conv): Conv1d(512, 512, kernel_size=(5,), stride=(1,), padding=(2,), groups=512)
          (norm): GlobLN()
        )
        (1): DilatedConvNorm(
          (conv): Conv1d(512, 512, kernel_size=(5,), stride=(2,), padding=(2,), groups=512)
          (norm): GlobLN()
        )
        (2): DilatedConvNorm(
          (conv): Conv1d(512, 512, kernel_size=(5,), stride=(2,), padding=(2,), groups=512)
          (norm): GlobLN()
        )
        (3): DilatedConvNorm(
          (conv): Conv1d(512, 512, kernel_size=(5,), stride=(2,), padding=(2,), groups=512)
          (norm): GlobLN()
        )
        (4): DilatedConvNorm(
          (conv): Conv1d(512, 512, kernel_size=(5,), stride=(2,), padding=(2,), groups=512)
          (norm): GlobLN()
        )
      )
      (fuse_layers): ModuleList(
        (0): ModuleList(
          (0): None
          (1): None
        )
        (1): ModuleList(
          (0): DilatedConvNorm(
            (conv): Conv1d(512, 512, kernel_size=(5,), stride=(2,), padding=(2,), groups=512)
            (norm): GlobLN()
          )
          (1): None
          (2): None
        )
        (2): ModuleList(
          (0): DilatedConvNorm(
            (conv): Conv1d(512, 512, kernel_size=(5,), stride=(2,), padding=(2,), groups=512)
            (norm): GlobLN()
          )
          (1): None
          (2): None
        )
        (3): ModuleList(
          (0): DilatedConvNorm(
            (conv): Conv1d(512, 512, kernel_size=(5,), stride=(2,), padding=(2,), groups=512)
            (norm): GlobLN()
          )
          (1): None
          (2): None
        )
        (4): ModuleList(
          (0): DilatedConvNorm(
            (conv): Conv1d(512, 512, kernel_size=(5,), stride=(2,), padding=(2,), groups=512)
            (norm): GlobLN()
          )
          (1): None
        )
      )
      (concat_layer): ModuleList(
        (0): ConvNormAct(
          (conv): Conv1d(1024, 512, kernel_size=(1,), stride=(1,))
          (norm): GlobLN()
          (act): PReLU(num_parameters=1)
        )
        (1): ConvNormAct(
          (conv): Conv1d(1536, 512, kernel_size=(1,), stride=(1,))
          (norm): GlobLN()
          (act): PReLU(num_parameters=1)
        )
        (2): ConvNormAct(
          (conv): Conv1d(1536, 512, kernel_size=(1,), stride=(1,))
          (norm): GlobLN()
          (act): PReLU(num_parameters=1)
        )
        (3): ConvNormAct(
          (conv): Conv1d(1536, 512, kernel_size=(1,), stride=(1,))
          (norm): GlobLN()
          (act): PReLU(num_parameters=1)
        )
        (4): ConvNormAct(
          (conv): Conv1d(1024, 512, kernel_size=(1,), stride=(1,))
          (norm): GlobLN()
          (act): PReLU(num_parameters=1)
        )
      )
      (last_layer): Sequential(
        (0): ConvNormAct(
          (conv): Conv1d(2560, 512, kernel_size=(1,), stride=(1,))
          (norm): GlobLN()
          (act): PReLU(num_parameters=1)
        )
      )
      (res_conv): Conv1d(512, 512, kernel_size=(1,), stride=(1,))
    )
    (concat_block): Sequential(
      (0): Conv1d(512, 512, kernel_size=(1,), stride=(1,), groups=512)
      (1): PReLU(num_parameters=1)
    )
  )
  (mask_net): Sequential(
    (0): PReLU(num_parameters=1)
    (1): Conv1d(512, 1024, kernel_size=(1,), stride=(1,))
  )
  (decoder): ConvTranspose1d(1024, 2, kernel_size=(21,), stride=(10,), padding=(10,), output_padding=(9,), bias=False)
  (mask_nl_class): ReLU()
)